tut1-model.pt (torch, 891415 bytes, 6 tensors)

input_fc.weight f4 [250, 784]
0.057742935 0.013066366 0.018695073 0.010374207 0.053650808 0.031209162 0.01568624 0.008358433
0.030402714 0.0024855628 0.04393766 0.06110452 0.018091604 -0.013359742 -0.01615618 -0.012650085
0.03349584 -0.003460038 -0.003414104 -0.00078830763 0.008043474 0.046968687 0.028846046 0.048825234
0.022038862 0.020346472 0.0046321843 0.053334195 0.015188756 0.015199258 0.036610253 0.055619504
0.06510999 0.02957253 0.052074153 0.018920239 -0.03463111 -0.024515618 0.022642095 0.01344573
0.018628448 0.018424965 -0.025290143 0.0064980756 0.015304781 0.037494313 -0.021208243 -0.011048281
-0.009162803 0.048069675 0.015160432 0.027043035 0.00051860046 0.06098977 0.031602267 0.0070951106
0.068026796 0.062448222 0.04414766 0.019649982 0.0019528739 0.048495717 0.0044950116 -0.026286433
-0.041164268 -0.029644558 -0.02655692 -0.058087863 -0.09023199 -0.050276052 -0.0858583 -0.040319093
-0.047491122 0.012014754 -0.005031539 -0.016787501 -0.0360219 0.028997116 0.021614486 0.04083545
0.056702267 0.042906545 0.025915895 0.057408407 0.06629995 0.008568162 0.017639771 0.013523964
0.06390819 0.06270158 0.0046128216 -0.017961597 0.006428149 -0.04666811 -0.016443063 -0.04277872
-0.029194012 -0.08198855 -0.04515106 -0.012813976 -0.016283225 0.059421293 0.0034043 -0.032882873
0.045711037 0.034712803 0.040431563 0.045059707 0.053063683 0.009182483 0.05631455 0.0032597221
0.04943783 0.02544094 0.054342255 0.0012441633 0.021137085 0.028293358 0.059269845 0.008231949
0.0123493 0.025429737 -0.004760724 -0.03167065 -0.02642021 0.0023985303 -0.014121335 0.011869262
0.060452484 0.013052233 0.008438804 0.00624797 0.013817675 0.018382661 0.04955045 0.027613511
0.006648817 0.007164877 0.06523443 0.045109242 0.037453603 0.026897402 0.07232527 0.06571572
0.049669683 0.007845789 -0.024704395 -0.021742402 -0.0054080007 -0.016084645 -0.0061344737 -0.05718992
-0.031327408 -0.048639767 0.015779156 0.06716318 -0.019124253 0.00843486 -0.04287689 -0.074318714
-0.09761485 -0.005032082 0.023796573 0.0750248 0.0339163 0.065078765 0.014900438 0.061213717
0.0056722057 0.024776544 0.007979054 0.04032093 -0.033735983 0.03856888 0.03248415 0.029267102
0.01449582 0.038360484 -0.021190787 -0.017165123 -0.001144976 -0.000478729 -0.016328923 -0.017791497
-0.098708734 -0.07746863 -0.071586825 -0.04585423 -0.07512194 0.004485776 0.032767493 0.0050457385
0.027648991 -0.019616358 -0.0075279335 0.073861696 0.00872136 0.024379341 0.0302824 -0.02568328
0.0009848367 0.050734375 -0.0077830437 0.04536671 0.028542388 -0.0019268417 -0.0678612 -0.053287737
0.014527789 -0.026753483 -0.04015857 -0.00963202 -0.053138647 -0.08825561 -0.09755977 -0.08589351
-0.003000762 -0.02253272 0.037779972 -0.0323661 0.022807036 -0.04990618 0.009876749 0.05280584
0.012405865 0.030825892 0.04341252 0.036516912 -0.03480244 -0.0070935544 0.048822306 -0.015830014
-0.009573349 -0.041157536 -0.06125073 -0.02890363 -0.043598447 -0.012071722 -0.0065204334 -0.07140343
-0.01000132 -0.040038317 -0.09209121 -0.07612914 -0.030648226 0.018521558 -0.02240115 -0.060360484
0.035820045 0.019395389 0.07371837 0.02643047 0.02957493 0.02921943 0.046047963 0.021917226
00000000: db83 6c3d 5014 563c 6926 993c 94f8 293c
00000010: f3c0 5b3d 5baa ff3c 6e80 803c cff1 083c
00000020: 1d0f f93c d3e4 223b faf7 333d bc48 7a3d
00000030: d834 943c d2e2 5abc f759 84bc 4d42 4fbc
00000040: ef32 093d cec1 62bb 29bf 5fbb 6ea6 4eba
00000050: c6c8 033c 3d62 403d 8b4e ec3c f8fc 473d
00000060: d88a b43c a5ad a63c 94c9 973b f574 5a3d
00000070: 43da 783c 4f06 793c a2f4 153d 47d1 633d
00000080: 6358 853d 1742 f23c b54b 553d 9efe 9a3c
00000090: 5ad9 0dbd fad4 c8bc ea7b b93c 7b4b 5c3c
000000a0: b09a 983c f4ef 963c 462d cfbc cfed d43b
000000b0: e7c0 7a3c a393 193d e9bc adbc d903 35bc
000000c0: 951f 16bc b5e4 443d 7663 783c 5b89 dd3c
000000d0: b0f2 073a 69d0 793d 6171 013d 1a7e e83b
000000e0: a251 8b3d b5c9 7f3d 2dd4 343d 00f9 a03c
000000f0: 93f7 ff3a 72a3 463d e44a 933b a556 d7bc
00000100: dd9b 28bd 25d9 f2bc e68d d9bc 8aed 6dbd
00000110: 8dcb b8bd 43ee 4dbd 7ad6 afbd a225 25bd
00000120: 0d86 42bd 88d9 443c 9cdf a4bb f185 89bc
00000130: b38b 13bd 5c8b ed3c dd10 b13c 1343 273d
00000140: a340 683d c6be 2f3d 924d d43c 1425 6b3d
00000150: 45c8 873d 7a61 0c3c 4881 903c 9e93 5d3c
00000160: 4ce2 823d b069 803d 2727 973b 3324 93bc
00000170: 39a3 d23b 0f27 3fbd 9ab3 86bc bd38 2fbd
00000180: 4828 efbc 9de9 a7bd 51f0 38bd b6f1 51bc
00000190: 6664 85bc be63 733d ad1a 5f3b 31b0 06bd
000001a0: 7f3b 3b3d 032f 0e3d 919b 253d 8790 383d
000001b0: 4e59 593d 2072 163c 16aa 663d 10a1 553b
000001c0: 527f 4a3d 8569 d03c fc95 5e3d 3113 a33a
000001d0: ae27 ad3c 79c7 e73c f0c4 723d 4cdf 063c
000001e0: b854 4a3c 0652 d03c d9ff 9bbb 15b9 01bd
000001f0: 326f d8bc a930 1d3b 2c5d 67bc 4b77 423c
00000200: 069d 773d 08d9 553c e942 0a3c c5bb cc3b
00000210: 8863 623c 3c97 963c 6af5 4a3d bb35 e23c
00000220: 52de d93b 58c7 ea3b a199 853d 78c4 383d
00000230: f368 193d f157 dc3c 451f 943d f795 863d
00000240: 7072 4b3d a08b 003c df60 cabc 1f1d b2bc
00000250: 9935 b1bb f2c3 83bc b203 c9bb fa3f 6abd
00000260: 2b51 00bd 7e3a 47bd 4a43 813c d98c 893d
00000270: 77aa 9cbc 5e32 0a3c ae9f 2fbd 6934 98bd
00000280: 4bea c7bd 2ae4 a4bb 08f1 c23c 9aa6 993d
00000290: d1eb 0a3d 0448 853d f720 743c 3cbb 7a3d
000002a0: e9dd b93b 2ef8 ca3c 94ba 023c 8f27 253d
000002b0: be2e 0abd 67fa 1d3d 1a0e 053d 90c1 ef3c
000002c0: e07f 6d3c e21f 1d3d 4d98 adbc df9d 8cbc
000002d0: 0513 96ba ebfd fab9 3cc4 85bc 79bf 91bc
000002e0: ce27 cabd e0a7 9ebd 1d9c 92bd a5d1 3bbd
000002f0: 88d9 99bd 6bfd 923b 3537 063d b956 a53b
00000300: 2380 e23c 7cb2 a0bc e2ac f6bb cd44 973d
00000310: 09e4 0e3c 2fb7 c73c cc12 f83c be65 d2bc
00000320: a315 813a d9ce 4f3d e708 ffbb 71d2 393d
00000330: bad1 e93c 148e fcba d0fa 8abd 3e44 5abd
00000340: f705 6e3c 1f2a dbbc 507d 24bd 9fcf 1dbc
00000350: e9a7 59bd 5bbf b4bd 6bcd c7bd f0e8 afbd
00000360: 6fa8 44bb 8a96 b8bc 2cbf 1a3d 5192 04bd
00000370: d2d5 ba3c 6c6a 4cbd 16d2 213c f04a 583d
00000380: f841 4b3c 9586 fc3c 54d1 313d c292 153d
00000390: 018d 0ebd 0c71 e8bb e6f9 473d f2ad 81bc
000003a0: 89d9 1cbc ce94 28bd 0ce2 7abd 4ec7 ecbc
000003b0: 4994 32bd 79c8 45bc 5ca9 d5bb f63b 92bd
000003c0: 94dc 23bc 38ff 23bd 519a bcbd 98e9 9bbd
000003d0: fd11 fbbc 86ba 973c 9e82 b7bc 8e3c 77bd
000003e0: 0ab8 123d 14e3 9e3c a8f9 963d b784 d83c
000003f0: 2047 f23c 965d ef3c ca9c 3c3d c18b b33c

input_fc.bias f4 [250]
-0.036738817 -0.031010525 0.0074838605 0.0032973406 0.0132284425 0.018560834 -0.058200266 -0.042305082
-0.039884053 -0.029838428 -0.055739492 0.014286781 -0.04064224 0.013020396 -0.031443354 -0.068701446
-0.018661218 -0.009922346 -0.06894674 0.0070419786 -0.058470655 -0.04722024 -0.0167516 -0.027264204
-0.025718357 0.04640127 -0.023093466 -0.0016121693 -0.017530233 -0.0010173385 -0.0054342006 -0.04646253
0.007893954 -0.041877642 -0.00066540623 -0.004992403 -0.011023186 0.018219719 -0.014474178 -0.012101793
-0.031059332 -0.022006283 -0.042400338 0.04322201 0.07179787 -0.017800307 0.028154384 -0.030610489
-0.016182672 -0.0762636 0.0032749535 0.0007847176 0.00094927754 0.0029366596 0.039711397 -0.0023940227
-0.033454593 -0.048943266 -0.018862924 0.0034435778 -0.029617375 0.001366647 -0.017040841 -0.04589021
0.04572796 -0.020573875 -0.039872307 -0.020429801 -0.06444486 0.06141007 -0.044719927 0.033304982
-0.0847528 -0.05251642 0.03615431 -0.02093548 -0.024276817 0.026330553 0.04365466 -0.0063648988
-0.049504213 -0.056045163 -0.049943753 -0.030084483 -0.063519694 -0.06285449 -0.050359458 -0.0072984733
-0.01569402 -0.017525297 -0.027525268 -0.040917136 -0.009820172 -0.040459312 0.045123942 -0.006494806
-0.009871284 0.016799616 -0.06571725 -0.039925665 0.0012734478 -0.01850568 0.01354016 -0.015331774
-0.0012724384 -0.046403162 0.020853959 -0.035429005 -0.03883485 -0.011994285 -0.032161392 -0.0612246
-0.010295608 -0.015407939 -0.0435139 -0.04869774 0.0033635693 -0.0070579406 -0.02574544 -0.044424884
-0.027569143 0.0342698 -0.03339977 -0.021618895 0.0007360801 -0.04948715 -0.0018670514 -0.017251408
-0.03166585 -0.0019225344 -0.025159776 -0.014009419 0.0282747 -0.023964245 -0.0036966733 0.0022314738
-0.0034728774 -0.043811947 -0.03954417 -0.027220752 -0.017130515 -0.03527492 0.023563322 -0.0037601287
-0.04723153 -0.015174012 -0.024875583 0.027977414 -0.03412172 -0.04712321 -0.035313383 -0.04141392
-0.013052373 -0.05325513 -0.02558071 -0.0023191308 -0.009829407 -0.048917387 0.011236843 -0.013356163
-0.011394853 0.005187907 0.008386797 -0.03224269 0.03569496 0.02807894 -0.03765694 -0.07213307
0.014064682 -0.005490344 -0.048144013 0.010078586 -0.04835716 -0.017622186 -0.023740508 -0.03104696
-0.015794428 -0.03714904 -0.018057346 -0.023217766 -0.022667382 0.013508688 -0.02968652 -0.054634262
-0.04138936 0.0083088195 -0.038152028 -0.068031535 0.018224144 -0.06262849 -0.01361603 0.042085443
-0.030680645 0.01601767 -0.018211894 -0.036193877 -0.031207224 -0.023794083 -0.019509478 -0.010017274
0.0029032985 -0.012811572 0.00317056 -0.047642678 -0.03112544 -0.04723875 0.00064432947 -0.026576497
-0.025611758 0.025346952 0.00071115815 0.033625048 0.04020226 -0.047243826 -0.039372306 -0.025471855
-0.056664243 0.006380745 0.041641887 0.015999233 -0.036020465 -0.021503797 0.002880479 -0.06396324
0.013189759 -0.028815426 0.024828766 0.086820155 -0.050942477 0.0028506718 -0.014273718 0.00663433
-0.02198265 -0.03428438 -0.018262155 -0.042144902 -0.016812775 0.00813659 -0.063604444 -0.01947982
-0.026284631 -0.07354999 -0.040048167 -0.046433873 -0.017764341 -0.0127249025 -0.004608759 -0.012248809
-0.015750585 -0.045217097
00000000: 717b 16bd c909 febc 2c3b f53b 3218 583b
00000010: 1cbc 583c e40c 983c 6763 6ebd 1848 2dbd
00000020: 765d 23bd b86f f4bc 184f 64bd 1a13 6a3c
00000030: 7a78 26bd 8053 553c bfca 00bd 58b3 8cbd
00000040: 69df 98bc 5691 22bc f333 8dbd 66c0 e63b
00000050: ed7e 6fbd 036a 41bd a73a 89bc 2e59 dfbc
00000060: 4eaf d2bc 420f 3e3d 822e bdbc 6d4f d3ba
00000070: 909b 8fbc 3758 85ba 6111 b2bb 7e4f 3ebd
00000080: a555 013c e487 2bbd a86e 2eba 5097 a3bb
00000090: 989a 34bc 8541 953c 1a25 6dbc 9946 46bc
000000a0: 2470 febc 8546 b4bc faab 2dbd 9009 313d
000000b0: c30a 933d f3d1 91bc 06a4 e63c d9c2 fabc
000000c0: 8691 84bc 1730 9cbd 9aa0 563b 82b5 4d3a
000000d0: f0d8 783a f974 403b 6ba8 223d 09e5 1cbb
000000e0: af07 09bd bc78 48bd 6b86 9abc a6ad 613b
000000f0: 23a0 f2bc 1021 b33a 3c99 8bbc 5ff7 3bbd
00000100: 3e4d 3b3d 8b8a a8bc 2551 23bd 665c a7bc
00000110: abfb 83bd 2089 7b3d 3e2c 37bd ce6a 083d
00000120: e092 adbd 751b 57bd 8b16 143d e280 abbc
00000130: 2de0 c6bc 2cb3 d73c 3bcf 323d a490 d0bb
00000140: eec4 4abd 9d8f 65bd d291 4cbd bc73 f6bc
00000150: 9d16 82bd dbb9 80bd b845 4ebd 0828 efbb
00000160: bf90 80bc 3691 8fbc ac7c e1bc ba98 27bd
00000170: c9e4 20bc aab8 25bd e2d3 383d 62d2 d4bb
00000180: 2abb 21bc 599f 893c c496 86bd 1889 23bd
00000190: d1e9 a63a 3999 97bc 8cd7 5d3c 1f32 7bbc
000001a0: f3c7 a6ba 3e11 3ebd ecd5 aa3c 011e 11bd
000001b0: 4b11 1fbd ad83 44bc aabb 03bd a5c6 7abd
000001c0: e9ae 28bc 9571 7cbc a23b 32bd 4877 47bd
000001d0: 546f 5c3b 4c46 e7bb 1ae8 d2bc def6 35bd
000001e0: afd8 e1bc 7d5e 0c3d 32ce 08bd 1c1a b1bc
000001f0: 80f5 403a 0ab3 4abd d9b7 f4ba d352 8dbc
00000200: 0db4 01bd 8dfd fbba e01b cebc c387 65bc
00000210: 58a0 e73c aa50 c4bc e343 72bb eb3d 123b
00000220: 3799 63bb 2874 33bd 11f9 21bd 0efe debc
00000230: 4b55 8cbc 6f7c 10bd de07 c13c 7e6c 76bb
00000240: d975 41bd 6b9c 78bc e1c7 cbbc e430 e53c
00000250: 37c3 0bbd 4404 41bd c4a4 10bd a4a1 29bd
00000260: 9fd9 55bc 0d22 5abd a38e d1bc 8ffc 17bb
00000270: 850b 21bc 995d 48bd bc1a 383c cfd3 5abc
00000280: 7ab1 3abc 51ff a93b c768 093c e910 04bd
00000290: e134 123d ce05 e63c 2a3e 1abd 81ba 93bd
000002a0: 8d6f 663c 58e8 b3bb a832 45bd a720 253c
000002b0: 2812 46bd 675c 90bc 747b c2bc 3256 febc
000002c0: 5163 81bc 9729 18bd 00ed 93bc 2f33 bebc
000002d0: f2b0 b9bc 8b53 5d3c 2531 f3bc 2dc8 5fbd
000002e0: e487 29bd b721 083c 4d45 1cbd 1e54 8bbd
000002f0: cd4a 953c 5e43 80bd c515 5fbc c961 2c3d
00000300: fa55 fbbc 7d37 833c 1c31 95bc 0840 14bd
00000310: 4ba6 ffbc cfeb c2bc 57d2 9fbc 7e1f 24bc
00000320: 4445 3e3b a1e7 51bc 2cc9 4f3b f824 43bd
00000330: c7fa febc 6b7d 41bd 38e8 283a f4b6 d9bc
00000340: c0cf d1bc 69a4 cf3c 046d 3a3a 6bba 093d
00000350: 20ab 243d be82 41bd db44 21bd 5aaa d0bc
00000360: c418 68bd 9215 d13b af90 2a3d d310 833c
00000370: 328a 13bd bb28 b0bc 6bc6 3c3b 29ff 82bd
00000380: dc19 583c 540e ecbc b265 cb3c c4ce b13d
00000390: 0fa9 50bd 56d2 3a3b 50dc 69bc cb64 d93b
000003a0: f514 b4bc c76d 0cbd 849a 95bc 22a0 2cbd
000003b0: f2ba 89bc 554f 053c 0c43 82bd 2594 9fbc
000003c0: de52 d7bc 61a1 96bd 8c09 24bd 7231 3ebd
000003d0: 8686 91bc 1c7c 50bc 1305 97bb 3baf 48bc
000003e0: 5f07 81bc 9035 39bd

hidden_fc.weight f4 [100, 250]
-0.08463207 -0.066275194 -0.025518058 0.08294377 -0.12090348 0.06085948 0.13348432 -0.024892516
0.06782954 0.035339262 0.008229823 0.04407368 0.0384764 0.024346689 -0.054936025 0.026421087
0.020567853 0.057064593 -0.07556159 -0.03993663 -0.037532467 -0.09744133 -0.011199076 0.041201103
-0.05079929 0.1695174 0.07734347 0.08589813 -0.0377753 0.04446196 -0.014960235 0.095441006
-0.051707488 0.14895691 0.016998658 -0.054376297 0.0009086758 0.07312498 0.09051014 -0.21959579
0.084100455 -0.048484433 -0.019823197 -0.112161815 -0.065634094 0.04015187 0.026081817 0.022026582
-0.0015925947 0.035540268 -0.061988506 0.12590702 -0.0059969407 0.11442729 0.114478454 -0.03271635
-0.078600384 0.088640526 0.023857774 -0.013994992 0.022281304 -0.17268753 0.062329203 0.060520817
0.00939444 0.0022258642 0.11255881 -0.04975221 0.024536187 -0.007802274 0.025410533 0.041537628
0.030976513 0.12543309 0.12224305 0.03602179 -0.006625264 0.05321652 -0.002088232 0.14533238
0.093906604 0.038710024 0.016582107 0.07616347 0.0043852613 -0.031382587 0.12705302 0.054390702
-0.019461941 -0.0013122389 0.021561861 0.028480258 0.10660794 0.011341582 -0.114400305 0.07549406
0.038153794 0.04955061 0.20026201 -0.05629628 0.102152795 -0.026720895 -0.012410916 -0.038338654
-0.016743304 -0.026462473 -0.037082393 -0.26381722 -0.0017435008 0.022557016 0.0969043 -0.1430799
0.0025732294 0.068785496 0.033792645 0.052958194 -0.07163057 0.060193542 0.008323402 0.0016668625
-0.031567737 -0.12426029 0.030174522 0.046402898 -0.00069776276 -0.011249144 0.139612 0.06632329
-0.088831514 0.054001525 -0.064049624 -0.14888942 -0.03940854 -0.011401359 -0.11393839 0.07384056
0.016125092 -0.31826314 -0.086445734 -0.08931232 -0.040007778 0.014814208 0.009308032 -0.079780065
-0.07462537 -0.23550266 0.011397193 0.034518763 0.093430296 -0.07111802 -5.104754e-05 0.09819136
0.06389129 -0.0376453 -0.1014696 0.12078252 -0.04276679 0.044372767 -0.13826337 0.012544929
-0.042747866 0.17519407 -0.053194262 0.106285974 -0.075066775 0.079841636 0.06401069 0.081812814
0.02998673 0.10496415 0.083421074 0.0032666973 -0.02962144 0.066860475 0.006101634 -0.02550489
0.058384188 0.04286778 0.032677136 0.040274017 0.019236375 0.02960378 -0.06889649 0.049525507
-0.027971158 0.03286294 -0.090566985 0.1462504 0.054014195 -0.02736389 -0.12103469 0.0326316
0.059448104 0.0022656494 0.021481374 0.012373768 0.12503043 -0.060951624 -0.053829618 0.053257093
0.0020957598 -0.0441266 0.025735732 0.03931288 -0.17420281 0.13731278 -0.008767019 -0.27970257
-0.07802846 0.023429353 0.06217155 -0.10389641 0.018857153 0.04167993 -0.0054001394 -0.10106697
0.008073666 0.041365612 -0.04214804 0.027591277 -0.1152548 0.00029973895 -0.009644448 -0.12657645
0.12041809 -0.07721232 -0.067598656 0.08123932 -0.031584807 -0.09440376 -0.047564734 -0.13823383
-0.003960888 0.10011419 0.05760554 -0.05295501 0.10655331 0.064777344 -0.055536155 -0.01414517
0.062433656 0.02464165 0.1137547 -0.07853905 0.026721066 0.080478 0.014154099 -0.031578816
-0.017320722 -0.025939653 -0.29292285 0.049629807 -0.003790861 0.06649144 0.13003129 0.15815647
00000000: 9453 adbd 4abb 87bd 3f0b d1bc 6cde a93d
00000010: 3e9c f7bd ca47 793d 1db0 083e 64eb cbbc
00000020: 37ea 8a3d e7bf 103d 61d6 063c 9a86 343d
00000030: 6e99 1d3d b572 c73c 9904 61bd 0971 d83c
00000040: ea7d a83c 90bc 693d 09c0 9abd 9794 23bd
00000050: a5bb 19bd 528f c7bd 547c 37bc 7dc2 283d
00000060: eb12 50bd f895 2d3e 4166 9e3d 5ceb af3d
00000070: 46ba 1abd bf1d 363d c61b 75bc 9376 c33d
00000080: 3bcb 53bd 2988 183e c540 8b3c aeb9 5ebd
00000090: 3334 6e3a 8dc2 953d 615d b93d b8dd 60be
000000a0: dc3c ac3d 9d97 46bd 4264 a2bc 18b5 e5bd
000000b0: 2b6b 86bd 4a76 243d 89a9 d53c 1771 b43c
000000c0: 9cbe d0ba ac92 113d a9e7 7dbd c5ed 003e
000000d0: fc81 c4bb db58 ea3d ae73 ea3d 9401 06bd
000000e0: 3df9 a0bd 2a89 b53d 6171 c33c 404b 65bc
000000f0: 4887 b63c 00d5 30be e84c 7f3d ade4 773d
00000100: 23eb 193c cedf 113b 3c85 e63d f9c8 4bbd
00000110: 1d00 c93c 38aa ffbb c029 d03c 5c23 2a3d
00000120: 75c2 fd3c 8871 003e 905a fa3d 968b 133d
00000130: be18 d9bb 91f9 593d b8da 08bb 03d2 143e
00000140: 1b52 c03d 678e 1e3d 33d7 873c 98fb 9b3d
00000150: 3db2 8f3b 078b 00bd 301a 023e c9c8 5e3d
00000160: a66e 9fbc 6eff abba 80a2 b03c 6e4f e93c
00000170: 4355 da3d 0bd2 393c b54a eabd a19c 9a3d
00000180: 2747 1c3d 95f5 4a3d 7c11 4d3e ee96 66bd
00000190: 7c35 d13d c7e5 dabc 2857 4bbc fe08 1dbd
000001a0: 4129 89bc d4c7 d8bc b5e3 17bd 0d13 87be
000001b0: 2e86 e4ba 7ec9 b83c c375 c63d 8a83 12be
000001c0: a0a3 283b 69df 8c3d 286a 0a3d b1ea 583d
000001d0: 0cb3 92bd 818d 763d e15e 083c a07a da3a
000001e0: 2c4d 01bd 2e7c febd 8f30 f73c f710 3e3d
000001f0: 11ea 36ba 544e 38bc 73f6 0e3e 81d4 873d
00000200: 4ced b5bd b430 5d3d 732c 83bd 7876 18be
00000210: d96a 21bd c4cc 3abc 8858 e9bd b839 973d
00000220: c518 843c 63f3 a2be 760a b1bd 61e9 b6bd
00000230: 32df 23bd 4bb7 723c b780 183c bb63 a3bd
00000240: 30d5 98bd 9c27 71be 4bbb 3a3c 8c63 0d3d
00000250: 6258 bf3d 53a6 91bd e11b 56b8 8d18 c93d
00000260: 70d9 823d f531 1abd 4bcf cfbd d35c f73d
00000270: 3b2c 2fbd 38c0 353d ea94 0dbe 3f89 4d3c
00000280: 6318 2fbd 1366 333e 3ae2 59bd 76ac d93d
00000290: 9cbc 99bd 0384 a33d 0918 833d 7a8d a73d
000002a0: bba6 f53c 72f7 d63d abd8 aa3d 1616 563b
000002b0: aaa8 f2bc 25ee 883d 37f0 c73b a2ef d0bc
000002c0: 4224 6f3d 2096 2f3d 76d8 053d 5ef6 243d
000002d0: 9a95 9d3c a083 f23c 9a19 8dbd 42db 4a3d
000002e0: c523 e5bc 4a9b 063d 2f7b b9bd aac2 153e
000002f0: fd3d 5d3d 3d2a e0bc 09e1 f7bd b6a8 053d
00000300: db7f 733d 4a7b 143b b5f9 af3c 58bb 4a3c
00000310: fa07 003e 69a8 79bd 727c 5cbd 1c24 5a3d
00000320: 0459 093b 18be 34bd bed3 d23c 8b06 213d
00000330: 3962 32be b99b 0c3e 8ba3 0fbc 2d35 8fbe
00000340: 63cd 9fbd eaee bf3c 98a7 7e3d a4c7 d4bd
00000350: 517a 9a3c 93b8 2a3d a7f3 b0bb 33fc cebd
00000360: 6947 043c fd6e 293d 6ca3 2cbd 1a07 e23c
00000370: b50a ecbd 4826 9d39 bf03 1ebc 429d 01be
00000380: c29d f63d 7e21 9ebd 2a71 8abd cd60 a63d
00000390: 125f 01bd c256 c1bd 3dd3 42bd 2b8d 0dbe
000003a0: 56ca 81bb ab08 cd3d c9f3 6b3d 5ae7 58bd
000003b0: 9f38 da3d fca9 843d e179 63bd 25c1 67bc
000003c0: 6fba 7f3d 49dd c93c 39f8 e83d 15d9 a0bd
000003d0: 23e6 da3c a6d1 a43d 98e6 673c ca58 01bd
000003e0: 30e4 8dbc 657f d4bc fcf9 95be a048 4b3d
000003f0: 1870 78bb aa2c 883d ec26 053e c5f3 213e

hidden_fc.bias f4 [100]
-0.042877737 -0.07894227 0.034966853 -0.032658678 -0.028007587 -0.030925363 -0.06988521 0.057615444
0.12709472 -0.08286106 -0.05434852 -0.046164002 -0.068232566 0.14739501 -0.026035927 -0.023767924
-0.036298323 -0.048238043 -0.106499076 -0.13635124 -0.03461837 -0.06457282 0.0835901 -0.0029710243
0.0025118706 0.14142302 0.032852575 0.05413317 -0.12377504 -0.0884555 -0.10806248 0.08710935
0.0045104274 0.0023885171 -0.047602966 0.17208073 -0.07433619 0.016771868 -0.08283102 -0.09146154
0.046399128 -0.13991944 0.084160745 0.12087753 0.18317533 0.02338008 0.035270676 -0.04169472
0.01567921 0.069200195 -0.020732617 -0.084483795 0.08293009 0.08352918 -0.029343912 0.21272601
-0.069618605 0.13917582 0.07267837 0.1162811 0.13249747 -0.12275019 0.02058624 0.12267541
0.06657854 -0.14955871 0.06369862 -0.098924264 0.032743756 0.049103115 -0.11214258 0.037213832
0.08314252 0.15730348 -0.019378467 -0.16433719 0.1387623 0.035990372 -0.052643336 -0.018273387
-0.029070383 -0.021414453 0.06191513 -0.06347908 0.03170106 0.04012913 0.001435047 -0.025095245
0.016874291 0.024248322 -0.09721025 0.10382717 -0.02997742 -0.042105388 -0.061289802 0.10826051
-0.06040684 0.041013166 -0.028511567 -0.038966484
00000000: 91a0 2fbd 7cac a1bd 6739 0f3d 1bc5 05bd
00000010: 2b70 e5bc 3057 fdbc fa1f 8fbd 2cfe 6b3d
00000020: 1e25 023e 0fb3 a9bd 8e9c 5ebd 7716 3dbd
00000030: 84bd 8bbd b8ee 163e 4c49 d5bc f3b4 c2bc
00000040: 8dad 14bd 4195 45bd 301c dabd a99f 0bbe
00000050: fecb 0dbd c13e 84bd 4931 ab3d 84b5 42bb
00000060: 329e 243b 32d1 103e 6c90 063d beba 5d3d
00000070: c57d fdbd 2828 b5bd dd4f ddbd 6366 b23d
00000080: 35cc 933b ab88 1c3b 54fb 42bd ee35 303e
00000090: 933d 98bd 2865 893c 4fa3 a9bd 3050 bbbd
000000a0: 030d 3e3d 0b47 0fbe 785c ac3d a38e f73d
000000b0: 5092 3b3e 9587 bf3c fc77 103d 15c8 2abd
000000c0: b071 803c d5b8 8d3d 73d7 a9bc d705 adbd
000000d0: 40d7 a93d 5911 ab3d a562 f0bc d9d4 593e
000000e0: 3394 8ebd 1b84 0e3e 66d8 943d c924 ee3d
000000f0: 6bad 073e 7464 fbbd 79a4 a83c 3f3d fb3d
00000100: 545a 883d eb25 19be 6c74 823d ce98 cabd
00000110: 511e 063d 5920 493d 02ab e5bd 886d 183d
00000120: a046 aa3d 2a14 213e 97bf 9ebc 0248 28be
00000130: b417 0e3e a46a 133d 8aa0 57bd 12b2 95bc
00000140: 0325 eebc 5d6d afbc b89a 7d3d 5201 82bd
00000150: f8d8 013d 715e 243d 3018 bc3a 8b94 cdbc
00000160: f43b 8a3c 6ba4 c63c 2b16 c7bd 57a3 d43d
00000170: 3593 f5bc b376 2cbd 040b 7bbd b0b7 dd3d
00000180: 2a6d 77bd 6cfd 273d 1791 e9bc 529b 1fbd

output_fc.weight f4 [10, 100]
0.07459892 0.16732757 -0.08381471 -0.032066446 -0.00811764 0.14801416 -0.16164066 -0.01325071
0.14914839 0.05344222 0.004170118 -0.13123837 -0.19778237 -0.10111535 -0.14664419 0.0324261
0.0664125 -0.087974556 -0.23425141 -0.123366736 -0.06750163 -0.21117231 0.0690996 -0.09892624
-0.17963687 0.042988356 0.06426108 0.14899966 -0.152869 0.12774993 0.10864028 0.119463824
-0.070371255 0.110062286 -0.16061181 0.12921548 0.0060882675 0.11442633 0.11788403 0.0040131337
-0.005374992 -0.15426192 0.10020547 -0.08747386 0.09544873 -0.03237859 0.119949356 0.08849271
-0.18264711 -0.12407078 -0.28771484 -0.039673906 -0.009698932 0.02621138 0.046416786 -0.0633872
-0.23970735 -0.09474668 -0.13798767 0.08219334 -0.19430937 -0.08928038 0.103507355 0.022209985
-0.0723971 0.08846649 -0.06572217 0.1027009 0.010577695 -0.02934413 -0.19509304 0.10034595
-0.16892156 -0.11822373 0.14615269 0.021651443 -0.073532924 -0.2298257 -0.15030636 0.22128919
0.04403267 0.08755175 -0.109463036 -0.011534512 0.05137451 0.09848436 0.020686211 0.069291145
0.06580855 0.13303666 -0.09642696 -0.18990341 0.10757957 -0.16892758 -0.10174662 0.13312796
0.051497594 0.11574046 -0.010580797 0.015477734 -0.21526036 0.17698325 -0.1460169 0.07801776
0.096428275 -0.06581314 0.123727225 0.016279465 0.04303308 -0.04198025 -0.018931858 0.03873137
0.07782705 -0.17152244 0.14688289 0.014622442 -0.065399975 0.01485888 -0.05867903 0.019628739
0.0674377 -0.011010951 0.026260614 -0.056554522 -0.057082094 -0.10841095 0.003960111 0.0048473403
0.16494869 0.004104983 -0.036079403 -0.03507091 0.07066132 0.003239154 0.1105786 -0.29758385
-0.1067945 0.028863393 0.08439888 -0.19513355 0.09957545 0.19262907 -0.21901403 -0.0039741583
-0.16544722 0.09757328 -0.09117405 -0.081348136 -0.1651679 -0.12492285 0.0996252 -0.074319415
0.055281084 0.08375331 -0.021032749 -0.08868531 0.08893688 -0.1563448 -0.13869736 0.044338617
-0.14500201 0.11673413 0.096170865 -0.28590968 -0.057518814 0.22060296 0.011041361 -0.12340841
0.08693065 -0.29929432 0.11682719 -0.1509134 -0.03478996 -0.24723735 -0.08078671 0.10228901
-0.06167149 0.073255055 -0.03908037 0.2260363 0.04930218 -0.076902285 0.06152603 0.061624903
0.09562716 -0.111916296 -0.17517029 -0.0054333336 -0.20936589 -0.15862715 -0.19837554 0.063898265
-0.01462056 0.1004167 0.06263937 -0.038559977 -0.06135826 0.109691426 0.08484363 -0.30744395
0.07340296 0.06548047 0.13431628 -0.2225508 0.111673065 0.0290691 0.10129337 -0.088528566
0.0462363 -0.062023412 -0.00075170596 0.037228864 -0.21104807 -0.14030942 -0.032029945 -0.05807524
0.110897444 0.015672475 -0.06620042 0.08008076 0.10371124 0.11655912 0.067160964 -0.18861593
0.06712581 0.0912247 -0.007960035 0.035164904 -0.01589179 -0.006768042 0.048872683 -0.09671853
0.092431925 0.057115015 0.016613886 -0.0844603 -0.024507424 -0.099914685 0.030795127 -0.06819955
0.0012816748 -0.087872066 0.04363796 -0.18250158 0.09582618 -0.009586029 0.09711834 0.0550623
-0.030041443 -0.119345024 -0.06889915 -0.028008498 -0.05758963 0.06763134 0.02150762 0.031481925
00000000: 52c7 983d eb57 2b3e 0ca7 abbd 1b58 03bd
00000010: daff 04bc 0691 173e 2185 25be 8219 59bc
00000020: 5bba 183e 3be6 5a3d 7ca5 883b 5a63 06be
00000030: 7687 4abe 9115 cfbd e529 16be 3bd1 043d
00000040: 4703 883d 012c b4bd 9adf 6fbe b3a7 fcbd
00000050: 4b3e 8abd 8e3d 58be 1784 8d3d d799 cabd
00000060: baf2 37be 8f14 303d 509b 833d 5e93 183e
00000070: b189 1cbe e1d0 023e cc7e de3d 73a9 f43d
00000080: ce1e 90bd 5668 e13d 6c77 24be 1051 043e
00000090: 1780 c73b 5a58 ea3d 2f6d f13d 9b80 833b
000000a0: b320 b0bb d6f6 1dbe 8738 cd3d 7f25 b3bd
000000b0: a07a c33d 6a9f 04bd 02a8 f53d aa3b b53d
000000c0: d807 3bbe d218 febd 5c4f 93be 1b81 22bd
000000d0: 45e8 1ebc 3fb9 d63c 871f 3e3d 26d1 81bd
000000e0: d875 75be 8c0a c2bd a44c 0dbe fb54 a83d
000000f0: 09f9 46be a2d8 b6bd aafb d33d b7f1 b53c
00000100: ee44 94bd eb2d b53d 5899 86bd d954 d23d
00000110: 124e 2d3c 1a63 f0bc 78c6 47be 2d82 cd3d
00000120: c6f9 2cbe 481f f2bd 0da9 153e 5e5e b13c
00000130: 6e98 96bd 6e57 6bbe e9e9 19be a299 623e
00000140: 9a5b 343d 554e b33d 282e e0bd 40fb 3cbc
00000150: 146e 523d 2bb2 c93d 2176 a93c 84e8 8d3d
00000160: a2c6 863d c33a 083e 7f7b c5bd 0a76 42be
00000170: ad52 dc3d 5afb 2cbe 8860 d0bd b252 083e
00000180: 24ef 523d 5609 ed3d 145b 2dbc 5296 7d3c
00000190: 366d 5cbe 193b 353e 7485 15be c6c7 9f3d
000001a0: 307c c53d 0ac9 86bd b364 fd3d 835c 853c
000001b0: 7443 303d 7cf3 2bbd fc16 9bbc c9a4 1e3d
000001c0: ca63 9f3d 94a3 2fbe 7868 163e f892 6f3c
000001d0: 6cf0 85bd a972 733c 6c59 70bd 73cc a03c
000001e0: c71c 8a3d 4767 34bc 8020 d73c b7a5 67bd
000001f0: eace 69bd 8f06 debd d2c3 813b 70d6 9e3b
00000200: 4fe8 283e 1883 863b ffc7 13bd 84a6 0fbd
00000210: e2b6 903d fc47 543b 0877 e23d e95c 98be
00000220: 13b7 dabd ec72 ec3c 52d9 ac3d 17d1 47be
00000230: 37ee cb3d 8e40 453e 3745 60be a839 82bb
00000240: ff6a 29be 80d4 c73d 76b9 babd da99 a6bd
00000250: c621 29be 8dd7 ffbd 4c08 cc3d c734 98bd
00000260: 6b6e 623d db86 ab3d df4c acbc a5a0 b5bd
00000270: 8a24 b63d da18 20be ae06 0ebe 699c 353d
00000280: 687b 14be 4e12 ef3d 3bf5 c43d c162 92be
00000290: d998 6bbd bee5 613e d3e6 343c 8cbd fcbd
000002a0: b208 b23d 1b3d 99be 1843 ef3d 0b89 1abe
000002b0: eb7f 0ebd ca2b 7dbe 8173 a5bd e77c d13d
000002c0: 3f9b 7cbd bf06 963d bd12 20bd 0f76 673e
000002d0: 15f1 493d f27e 9dbd b802 7c3d 656a 7c3d
000002e0: 2cd8 c33d 5f34 e5bd d75f 33be 1b0a b2bb
000002f0: 0364 56be 286f 22be f522 4bbe 18dd 823d
00000300: 138b 6fbc 45a7 cd3d 1249 803d 11f1 1dbd
00000310: cd52 7bbd e6a5 e03d 7fc2 ad3d 4b69 9dbe
00000320: 4b54 963d a01a 863d 358a 093e 5be4 63be
00000330: d9b4 e43d 5222 ee3c e672 cf3d 774e b5bd
00000340: 4662 3d3d 430c 7ebd 220e 45ba 4b7d 183d
00000350: fc1c 58be 46ad 0fbe d531 03bd 4ee0 6dbd
00000360: 331e e33d 9063 803c 1694 87bd 6201 a43d
00000370: 8f66 d43d 8cb6 ee3d b08b 893d 8924 41be
00000380: 4279 893d 04d4 ba3d cf6a 02bc 1309 103d
00000390: 802f 82bc 74c6 ddbb b92e 483d 5d14 c6bd
000003a0: f34c bd3d 6ff1 693d d819 883c 86f9 acbd
000003b0: cbc3 c8bc 12a0 ccbd 1046 fc3c 35ac 8bbd
000003c0: dffd a73a 45f6 b3bd b8bd 323d b2e1 3abe
000003d0: 8440 c43d b80e 1dbc fbe5 c63d 0289 613d
000003e0: 7919 f6bc 2a6b f4bd ff1a 8dbd 1472 e5bc
000003f0: 1be3 6bbd 4d82 8a3d c030 b03c 31f3 003d

output_fc.bias f4 [10]
-0.0723468 -0.18515445 0.020601915 0.023909288 -0.05852881 -0.10673042 0.019785114 -0.115223646
0.18211259 0.06753059
00000000: 8f2a 94bd 2199 3dbe 59c5 a83c 69dd c33c
00000010: e8bb 6fbd 7a95 dabd 6414 a23c 60fa ebbd
00000020: b97b 3a3e 7a4d 8a3d
